Client/hand/model/keypoint_classifier/keypoint_classifier.tflite (tflite, 6464 bytes, 6 tensors)

dense_2/bias f4 [5]
000000 06 43 ae be a0 f2 36 be 08 5d 9c 3e 7b af bf 3e
       -0.3403551 -0.17865992 0.30539727 0.37438568
000010 55 92 7c 3d
       0.06166299

dense_1/bias f4 [10]
000000 6c b3 41 3f 19 86 01 3f 51 53 a9 bd 28 02 e6 bd
       0.756644 0.5059524 -0.082678445 -0.1123088
000010 55 8c 12 bf aa 77 f9 3e fd 13 bf 3e b2 e9 de 3d
       -0.5724538 0.4872411 0.37319937 0.108844176
000020 a7 42 f5 bd b5 e5 06 3f
       -0.119756036 0.52694255

dense/bias f4 [20]
000000 4e e4 1b bf c9 94 54 bf d5 f9 76 be e8 14 6c bf
       -0.6089524 -0.8303953 -0.24118741 -0.922194
000010 59 be a4 be 78 6e 3d be a0 44 c1 be b6 8e 87 be
       -0.32176474 -0.18499172 -0.3774767 -0.26476067
000020 40 bf 25 bf d9 f4 86 3d 08 e8 c3 be 52 f3 7f be
       -0.6474495 0.0658967 -0.38262963 -0.24995163
000030 99 c6 8d be 33 26 1d bf a3 2e 2b bf ec 2c d1 be
       -0.2769058 -0.6138641 -0.66868037 -0.40854585
000040 ea 74 1d 3f 89 11 29 bf 48 e9 2b bf eb c6 b5 be
       0.6150652 -0.6604238 -0.67152834 -0.35503325

sequential/dense/MatMul f4 [20, 42]
000000 4e a6 81 3e a0 83 76 be c1 45 8c be 6b 2e 61 3e
       0.25322193 -0.24073648 -0.27396968 0.21990363
000010 86 3d c4 bd 17 ca ca bd 1a 70 fa 3d e1 42 b2 3d
       -0.09582047 -0.09901827 0.12228413 0.087041624
000020 21 e3 a8 3e e4 ab 34 bd 4b d5 4c bf 7c 54 d8 be
       0.32985786 -0.04410924 -0.8001296 -0.42251956
000030 4f 1e a7 be df 3e 8e be ca 04 74 3d 12 24 9a bd
       -0.3264031 -0.27782342 0.05957488 -0.07526411
000040 44 a0 e9 3d 72 c5 90 bc 08 d2 c1 be b1 7e f9 be
       0.11407521 -0.017672274 -0.37855554 -0.4872947
000050 5a f9 c5 bd 7e 0a ae 3a b2 7f 05 3e b9 fc 27 3e
       -0.09666701 0.0013278273 0.13036993 0.16405
000060 01 99 24 3e 25 0e dd 3d e1 6d 12 be 17 8e fc be
       0.16073991 0.107937135 -0.14299728 -0.49327156
000070 b4 f6 93 bb b1 05 8c 3d d9 57 01 3e be ca 54 3e
       -0.0045154933 0.06837023 0.12631167 0.20780465
000080 a4 67 12 3e b8 09 26 3e 35 6a da bd ce d6 26 bf
       0.14297348 0.16214645 -0.10664789 -0.65171516
000090 76 5b 6a 3c b2 e2 49 bd 07 37 55 3d a0 a7 44 3e
       0.014304033 -0.04928846 0.05205443 0.19204569
0000a0 56 08 5a 3d 74 8c 2b 3e af 90 20 be c8 9b 20 3d
       0.053230606 0.16752797 -0.15680192 0.039211065
0000b0 84 a8 2a 3f 9f ca c2 be 94 5e e0 3e 8a 21 e7 be
       0.66663384 -0.38045213 0.43822157 -0.45142776
0000c0 6f e0 d7 3e 63 5c f4 be 3a 79 6c 3e 55 0d 60 be
       0.42163417 -0.47726735 0.2309312 -0.21880086
0000d0 c6 61 e2 3e 04 42 c4 bd 7b 61 2b 3d e1 19 0b 3d
       0.4421522 -0.09582904 0.04184101 0.033960227
0000e0 2a 01 81 be c4 1c 5f 3e dd b2 c7 be 7d 61 2e 3e
       -0.251962 0.21788317 -0.3900365 0.17029376
0000f0 17 06 8e 3e b3 44 4a be 24 28 00 3e 47 44 3f bd
       0.2773902 -0.19752769 0.12515312 -0.046695974
000100 25 35 56 bd 98 7c d1 3d ee 9f e6 bd e8 e1 98 3c
       -0.052296776 0.102288425 -0.11260973 0.018662408
000110 2d 70 97 3e d9 14 09 be 41 c2 29 3e 34 6c 35 be
       0.2957777 -0.13386859 0.16578008 -0.17717057
000120 75 5d 69 bd fe e0 97 3d 11 2d a5 3b ca 87 e4 3d
       -0.056973893 0.07415961 0.0050407727 0.11158712
000130 c3 22 74 3e 69 3e 9a be c5 6e 3a 3e 01 5a 60 be
       0.23841386 -0.3012574 0.18206318 -0.21909334
000140 f9 77 23 3e f3 dc ff bc 23 e3 3b 3d f2 ec b0 bb
       0.15963735 -0.031233286 0.04587091 -0.00539934
000150 00 8f c4 bc 84 60 31 3e 8d 84 8f bd bb 41 cf 3e
       -0.023993969 0.17321974 -0.07007704 0.40479836
000160 e9 ab 01 bd 57 70 5f 3e 04 58 89 bc b1 c0 17 3e
       -0.031658087 0.21820198 -0.016765602 0.148196
000170 b7 c5 b8 bc 81 1d 30 3e 48 d6 0a 3c 68 68 d4 3d
       -0.022555215 0.17198755 0.00847394 0.103714764
000180 d2 7a 30 3d 83 63 dd 3d 81 80 d7 3d c4 48 b3 3d
       0.04308588 0.10809996 0.10522557 0.08754113
000190 94 21 1a 3e d8 af a9 bf 07 0a 97 3c f9 3d ba 3d
       0.15051872 -1.3256788 0.018437399 0.090938516
0001a0 78 2d 0e bd 13 fe 9f 3d 68 aa 3c bd 88 43 4d 3d
       -0.03471133 0.07812133 -0.04606095 0.05011323
0001b0 74 e4 89 bd 1b 6b f2 3c fa e8 db 3b 3a c6 e2 3d
       -0.06733027 0.029592087 0.0067111226 0.11072965
0001c0 52 48 ee bc c8 1b bb 3d cc 96 ad bd f2 f7 3b 3d
       -0.02908722 0.09136158 -0.08476028 0.045890756
0001d0 39 f8 82 bd 7e 73 36 bd 85 2c de 3c fd e8 ec 3d
       -0.06395001 -0.044543736 0.027120838 0.115678765
0001e0 74 f5 4b bd 2a f0 8f 3d 81 4e 6a bb 42 18 64 3c
       -0.04979463 0.070282295 -0.0035752358 0.013921799
0001f0 4d dd 30 3d 72 41 08 bd a9 f1 15 be fc a8 f9 3d
       0.0431798 -0.03326554 -0.14642967 0.12190434
000200 6d 83 2f bf 5a ed bf be 65 5a 85 be 97 8b c4 be
       -0.68559915 -0.37485772 -0.26045528 -0.3838775
000210 2d 15 98 be 83 4e 97 be c6 54 95 be 7a 90 37 be
       -0.29703656 -0.29552087 -0.2916624 -0.17926207
000220 cb 79 e2 bd 91 f5 bc bc 9a 73 5c bd 2d 16 3e bc
       -0.110583864 -0.023066314 -0.053821184 -0.011601967
000230 5d da 95 3d b6 b4 0b 3e c8 40 29 3e 56 f0 99 3d
       0.0731704 0.13643155 0.16528618 0.075165436
000240 d9 47 b9 bd 34 23 3f bd 3a c7 04 bb 3c a4 10 be
       -0.09046907 -0.04666443 -0.002026035 -0.1412515
000250 bd d5 40 3d b4 a7 12 bd db e9 85 bd 32 de bb 3c
       0.047078837 -0.035804465 -0.06538745 0.0229331
000260 3a 84 74 bd d0 66 37 bd 64 a6 40 3d f3 d9 3e be
       -0.059696414 -0.044775784 0.047033682 -0.18637829
000270 97 bd e1 3c ac 71 81 bd 75 41 24 bd 04 29 54 3d
       0.027556224 -0.06320509 -0.040101487 0.051796928
000280 53 9d c5 bd 23 4d c8 bc 89 1b c1 3c 14 ea 67 be
       -0.09649148 -0.024450844 0.0235727 -0.22647887
000290 0d 04 ae bd 5d 79 ee bd 63 54 fc bd e3 12 65 3c
       -0.084968664 -0.11644242 -0.12320783 0.013981554
0002a0 63 69 4c be b4 a0 b8 3d 66 62 06 3d 19 37 73 3e
       -0.19962077 0.09015027 0.032808684 0.23751487
0002b0 f4 7a 12 3d 5f 66 95 3e d7 8c 03 3d 14 51 b5 3e
       0.03576179 0.29179665 0.032116737 0.3541342
0002c0 cf 2d d7 3d af b4 a4 3e 91 aa 88 3d 6f f3 42 3e
       0.10506784 0.321691 0.06673158 0.19038175
0002d0 fc 3d 08 3b 8c da b1 3d ef 6f 87 bd b1 49 a0 bb
       0.0020788899 0.08684263 -0.066131465 -0.004891597
0002e0 9c da c6 bd 88 7b 14 bd 6e b1 b9 3d f0 4d f8 3d
       -0.09709665 -0.03625062 0.09067045 0.121242404
0002f0 c6 d9 89 3d 0d f0 99 3d a0 a2 25 be 4e e8 e4 be
       0.0673099 0.07516489 -0.16175318 -0.44708484
000300 3b 15 02 be 90 58 b2 be 8d bc 23 3e 49 26 13 3e
       -0.12703411 -0.34833193 0.15989895 0.14370073
000310 3b 4b 7a 3d 64 a0 ee 3d 20 63 5a bd 16 f2 cd be
       0.0611069 0.11651686 -0.05331719 -0.4022376
000320 bb a3 12 3c ac 04 13 bf 51 b2 10 3e 89 02 57 3e
       0.008950169 -0.57429004 0.14130522 0.20997061
000330 03 6c 12 3e 63 e5 0a 3e 8f eb e8 bd b8 52 89 be
       0.14299016 0.13564067 -0.11373054 -0.26820922
000340 9b 58 61 bd b4 93 0e bf 76 94 a6 bd 00 64 95 bd
       -0.05501614 -0.5569413 -0.081337854 -0.07294464
000350 29 f9 2a 3e 12 32 6b 3e 4a 01 96 bc 68 9b 84 be
       0.1669661 0.22968319 -0.018311162 -0.25899816
000360 a9 3d af bd d3 20 f8 be 29 c7 c3 bd 0b bf 5e bf
       -0.085566826 -0.48462543 -0.09559471 -0.8701026
000370 90 98 87 3e 14 d8 4c 3e 9e 3a d1 bd 95 47 78 3d
       0.26483583 0.20004302 -0.102162585 0.06061514
000380 bb d6 43 be f5 61 8f 3d 1e 39 95 be b7 d8 02 3e
       -0.19124882 0.07001106 -0.2914514 0.12777983
000390 e3 4f 1c 3e 10 54 4f 3e 34 cc d5 bc 94 f6 93 bc
       0.1526485 0.20246911 -0.026098348 -0.018061914
0003a0 a1 b1 e3 3e e4 2c 3e be 8f 2b 6e 3f 3f 4b 51 3e
       0.44471458 -0.18571812 0.93035215 0.2043886
0003b0 de 34 1c 3d 90 8c 35 3e fd ae 15 bd a5 a4 a4 bd
       0.038136356 0.17729402 -0.036543835 -0.08039216
0003c0 b9 9e ff 3e ca e6 88 3d fc 16 7d 3f 63 6e 9c 3d
       0.49925783 0.066846445 0.98863196 0.07638242
0003d0 40 cb fd bd 6c 33 d9 3d 0b f6 1f be 34 f0 a9 bd
       -0.123922825 0.10605511 -0.15621202 -0.08297768
0003e0 e7 5d 47 3d 01 5c 08 ba 80 de 2e 3f db 61 4b 3e
       0.048673537 -0.0005201698 0.6830826 0.19861548
0003f0 28 4b 8b 3e d6 02 2b 3e ed 2a f1 3d 49 7a 5d 3e
       0.27205777 0.167003 0.117757656 0.2162868

sequential/dense_1/MatMul f4 [10, 20]
000000 b2 dd 06 3f c2 98 ed bd 27 f5 64 3f 5f 86 12 bf
       0.5268203 -0.11601402 0.8943657 -0.57236284
000010 72 01 a9 bf c9 1f f3 bd e8 a1 a2 be 88 25 eb 3d
       -1.3203566 -0.11871297 -0.3176415 0.11481768
000020 b6 c1 91 bf 19 3b 48 3e 9e 9b 06 bf a1 56 a8 3e
       -1.1387241 0.19553794 -0.52581203 0.32878593
000030 94 ee c2 ba 0f e8 cc be 67 88 da be c9 d8 05 c0
       -0.0014872127 -0.40020797 -0.42682192 -2.0913565
000040 14 d0 b5 3e df f1 ec bc 2b 64 09 bf 49 fa 01 bf
       0.35510314 -0.028923927 -0.5366847 -0.5077253
000050 6c af ef 3e e6 a3 0f 3f f0 41 bc 3e f3 41 01 3e
       0.46813524 0.56109464 0.36769056 0.12622814
000060 05 d1 c4 be 07 b9 9e 3e c9 b5 86 bf f9 07 e3 3e
       -0.3844072 0.3100054 -1.0524226 0.4434202
000070 61 ff 33 be 3d 69 2d 3f f1 17 8b be a5 4a a7 be
       -0.17577888 0.67738706 -0.27166703 -0.32674137
000080 2b 91 ce 3e 26 b8 a8 be 9a 8e 40 be 54 18 8d be
       0.4034513 -0.32952994 -0.18804398 -0.27557623
000090 3d 66 65 bd de 6d 71 3f ea 52 65 bd c1 87 ba be
       -0.056005705 0.9430827 -0.055987276 -0.36431697
0000a0 d4 d1 39 3d 53 69 90 3c 67 3e c4 bb ba 48 80 be
       0.045366123 0.017628348 -0.0059888843 -0.25055486
0000b0 4f 35 18 3f da 18 b3 3e 88 4e 90 3f e1 d3 96 3d
       0.5945634 0.34979898 1.1273966 0.073646314
0000c0 e1 0a a5 3e 5d 4c c5 bd 49 8a 21 3f a3 f1 60 be
       0.32234862 -0.09633706 0.6310163 -0.21967177
0000d0 22 97 0c 3e e7 45 2a 3f 99 af c3 3e 21 54 18 3f
       0.13729528 0.6651291 0.38219908 0.5950337
0000e0 84 04 18 3e 33 20 94 be dc b3 36 bf c3 2c 1b 3f
       0.14845473 -0.28930816 -0.71368194 0.60615176
0000f0 f9 92 83 3d c2 07 7c 3f 7a 2b 69 bd e9 76 e8 3e
       0.06424517 0.9844934 -0.056926228 0.4540322
000100 de c6 3d be 7a 7e 13 bf 87 a1 a0 3e 00 60 57 3e
       -0.18532893 -0.5761486 0.31373236 0.21032715
000110 dd 84 19 3e a7 54 bd 3d 55 c8 14 3f 71 e3 9e 3e
       0.1499209 0.09244662 0.5811818 0.310329
000120 df 17 1b 3e 5e 50 21 3e 46 d1 99 3f b2 37 5c 3e
       0.15145825 0.15753314 1.201699 0.21505621
000130 1a a5 8e 3d d3 94 d0 be d7 f3 50 3e 88 99 47 3f
       0.069650844 -0.40738544 0.20405518 0.77968645
000140 c1 fa 4b bc 5e e0 9d bc 84 97 94 3e 31 de 08 bf
       -0.012449921 -0.019272026 0.29021847 -0.5346404
000150 3b cb e9 bd 05 0d 41 3f be 77 ed be f0 be dd be
       -0.11415716 0.7541049 -0.4638042 -0.43309736
000160 62 5f d6 bd c2 5c 99 3e 7b ae 05 3f 9a 22 be be
       -0.104674116 0.2995358 0.5221936 -0.37135774
000170 7b 9c c7 bd e8 55 b9 3e 41 d8 4d be ad 81 db 3e
       -0.09746643 0.36198354 -0.20102026 0.42872372
000180 24 3c f3 3e 00 eb d6 bd 9a a7 8f be 53 30 be 3e
       0.4750682 -0.104940414 -0.28057557 0.37146243
000190 cb 71 02 bf e6 c3 0e 3e ea a2 ed 3f d1 9b 80 be
       -0.50954884 0.13941917 1.8565342 -0.25118878
0001a0 62 84 0d 3e af 26 e5 3e f5 fa ec 3e bb 58 50 3f
       0.13820031 0.44756076 0.46285215 0.8138539
0001b0 f4 46 6d bd 5a b7 47 3f b6 6c ed 3e 74 df 6e 3f
       -0.057928994 0.7801415 0.46372002 0.9330971
0001c0 a4 0b 8e 3d 2d a1 89 3f cc 5a 18 be 47 b2 91 bd
       0.06935814 1.0752312 -0.14878386 -0.07114082
0001d0 88 d0 a3 3f 5e 23 bb 3e 4b 21 f9 3d 27 4e 31 be
       1.2798014 0.3655042 0.12164553 -0.17314969
0001e0 29 3a 47 be 8f ae 5d bf a9 39 65 bf 3a ff a1 3e
       -0.1945578 -0.8659448 -0.8954111 0.31640035
0001f0 42 76 18 3e 80 18 11 be 02 bf d5 3e 1d 85 47 bf
       0.14888862 -0.14169502 0.4174729 -0.7793749
000200 db 25 53 3e 0b 79 78 be 09 75 51 bf 98 b3 f0 bd
       0.2061991 -0.24264924 -0.81819206 -0.11753005
000210 e2 81 6e bf 41 43 bf be 92 b6 10 bf b9 36 78 3e
       -0.93166935 -0.37355998 -0.5652858 0.24239625
000220 72 a2 e5 3c 1c a1 2a bf fa 00 4b bd 4b 80 82 3e
       0.028031562 -0.66652083 -0.04956148 0.25488505
000230 a2 a0 f0 3e 71 c8 3f 3f aa de cc 3f a3 da f7 bd
       0.46997553 0.74915224 1.6005452 -0.121022485
000240 da 64 5b 3d 23 74 44 3e dc e9 64 be 56 fc 2d 3e
       0.053562976 0.19184928 -0.22354835 0.1699079
000250 ae ea 06 3d 1d d7 89 3f e1 cd 09 3f 39 b2 98 3e
       0.03293865 1.0768772 0.5382977 0.29823473
000260 ae 63 7e 3f 46 e3 18 3f a4 2b 4f 3f ef 47 14 3d
       0.9937085 0.5972179 0.80925965 0.036201414
000270 58 af ed 3e 83 e4 26 3f 90 38 de 3e 24 28 3b 3f
       0.4642284 0.6519243 0.4340253 0.73108125
000280 de bd 66 3c 2c d0 ad be f0 da c3 bd 79 77 f9 3e
       0.014083354 -0.33947885 -0.095632434 0.48723963
000290 fa e2 08 3f 88 bc 82 3e ea f9 43 3f 38 ab 64 3d
       0.5347134 0.25534463 0.76553214 0.05582735
0002a0 fc bb 3c 3f 20 60 fb 3c a8 40 79 3e 05 b5 15 3f
       0.7372434 0.030685484 0.2434107 0.5847934
0002b0 fc e5 8d 3d 50 00 e5 3e 4c 74 3c 3e b2 6a 58 3e
       0.06928632 0.447268 0.18403739 0.21134451
0002c0 42 84 9b 3d b1 cb 1c 3f 33 d1 1a 3e c3 ed 55 bf
       0.075935856 0.6124831 0.15118866 -0.8356592
0002d0 ad 9d 60 3f 8a bd 14 3f 48 e5 23 bf 50 8a 60 3f
       0.87740594 0.58101714 -0.6402173 0.8771105
0002e0 06 b2 f2 3c b4 50 ad 3e d2 4c 19 bf 51 c6 09 bd
       0.029625904 0.33850634 -0.59882843 -0.033636395
0002f0 00 62 1e bd 18 a3 9e 3b 47 ee ff 3d 0a 37 82 be
       -0.03866768 0.0048412196 0.1249662 -0.25432616
000300 6c 94 b5 3d c3 56 c2 bd 4f e6 07 3e 5f 63 c3 3d
       0.088662 -0.09489205 0.1327145 0.09540438
000310 b9 cc 0a 3f db 3d 3b 3f df 60 c5 3f 95 1d 1f be
       0.5421863 0.7314126 1.5420188 -0.15538628

sequential/dense_2/MatMul f4 [5, 10]
000000 b8 29 5f bd f7 3a 69 be ba 5e 8a 3f 00 fc 62 3f
       -0.054483145 -0.227764 1.0810158 0.8866577
000010 31 57 9b 3f 57 54 07 3f 7b 29 cf be 1f dd 0a 3f
       1.2135984 0.5286307 -0.40461335 0.54243654
000020 15 c2 d3 3e ec f1 4e bf 11 b9 65 bf 7b 93 28 3f
       0.4135901 -0.80837893 -0.89735514 0.6585004
000030 1d f6 85 be a0 c1 20 3f 3b 99 91 3d 0d d9 69 3e
       -0.26164332 0.6279545 0.071093045 0.22836705
000040 48 c2 0e bf 6e 9a a8 3e fd 3a e3 3e c1 89 83 3f
       -0.557652 0.3293032 0.44380942 1.0276414
000050 fb f9 47 3f 15 63 6b 3f 39 da 85 bf 8d 15 a6 bf
       0.78115815 0.9194806 -1.0457221 -1.2975327
000060 cb 98 2f be 18 90 ef 3e 78 02 7c be 51 7d a1 3e
       -0.1714813 0.46789622 -0.24610317 0.3154092
000070 b0 f3 8d bf 5c 06 b9 3d 91 31 e6 be 74 13 70 bf
       -1.1089993 0.09034416 -0.4495969 -0.93779683
000080 4d 1f 57 3f 56 f1 cb 3d bb 35 d8 3e c1 46 22 bf
       0.84032136 0.099581406 0.42228493 -0.6338921
000090 4e 41 75 3f 4f 87 fe bf 82 e9 0e 3f 63 a3 16 3e
       0.9580277 -1.9885043 0.55825055 0.14710765
0000a0 cf 73 cf bf 37 45 87 3d fb a2 1d be e3 c4 85 3f
       -1.6207217 0.066049986 -0.15394203 1.045071
0000b0 63 d5 c2 be 28 5f d3 bf f0 35 26 3e 0f 9f 02 3f
       -0.38053426 -1.6513414 0.16231513 0.51023954
0000c0 ce 96 ed be 2c 6a 65 3f
       -0.46404117 0.8961513
